models/MNIST-cnn.onnx (onnx, 83471 bytes, 6 tensors)

conv1.0.weight f4 [16, 1, 3, 3]
-0.21326636 0.11829255 -0.33213174 0.01853163 -0.28936815 0.29837248 -0.04925599 0.28701276
-0.1011998 0.081244946 -0.081078514 -0.29684156 -0.16969827 0.08248076 0.29757923 0.27192944
0.21381702 -0.015970832 0.25121716 0.25763875 -0.0937992 -0.03565377 -0.025273547 0.13602398
0.13627127 0.18658473 -0.13589133 -0.040274337 -0.16751695 -0.05550195 0.015890773 0.15878336
-0.27147254 0.26053044 0.22804843 -0.129436 0.19510594 0.18507403 0.33454043 -0.119532034
-0.013370911 -0.10079916 -0.31643844 0.31689733 -0.2288521 -0.096477844 -0.2983674 -0.035091486
-0.21905652 0.081162244 0.30688414 -0.032246295 -0.11650753 0.32689223 -0.16557004 -0.3092256
0.31622443 -0.28839645 0.059136532 -0.05044616 -0.18327433 0.25147563 -0.19571573 -0.2786671
0.05385879 -0.32051212 0.1669246 0.1457111 0.080087334 -0.20760053 -0.07424795 0.27078664
-0.31955397 -0.2469695 -0.013328401 0.07932486 0.08473306 0.13560659 0.11086979 -0.3036726
0.24514164 0.34072852 -0.3003283 0.13753015 0.12702915 0.3207497 0.07790668 0.362451
0.32236195 -0.29898244 -0.12177276 -0.3273886 -0.22685279 -0.11972248 0.033813722 -0.13338992
0.13305224 -0.2957447 -0.053553972 0.19953822 -0.2554251 0.2022451 -0.12237983 -0.068727285
-0.31496388 -0.050924767 0.2936922 0.28711745 0.19615486 0.17057884 -0.2631088 0.31586125
0.2431923 -0.2446924 0.016526852 0.21437272 0.018615726 0.07310891 -0.230206 -0.14938234
0.0751376 -0.09686211 -0.30433792 0.15855722 -0.30970547 0.20858374 0.30508932 0.25891355
0.17058942 -0.08436731 0.0071258605 0.14960319 0.32570443 0.089890376 0.03152428 0.29433516
0.2709042 0.2030536 0.043424875 0.014294385 0.39404368 0.27379996 0.0075700567 0.24450965
00000000: 7f62 5abe 5d43 f23d 2c0d aabe a5cf 973c
00000010: 1028 94be 47c4 983e a6c0 49bd 56f3 923e
00000020: d741 cfbd c063 a63d 7e0c a6bd 9efb 97be
00000030: 62c5 2dbe aceb a83d 4e5c 983e 563a 8b3e
00000040: d9f2 5a3e 43d5 82bc 899f 803e 3ae9 833e
00000050: cc19 c0bd b009 12bd 780a cfbc df49 0b3e
00000060: b28a 0b3e 1110 3f3e 1927 0bbe b4f6 24bd
00000070: 9089 2bbe 0356 63bd 5e2d 823c 1b98 223e
00000080: 73fe 8abe 3f64 853e 8785 693e df8a 04be
00000090: dac9 473e 0c84 3d3e e248 ab3e 36cd f4bd
000000a0: aa11 5bbc ca6f cebd 3804 a2be 5e40 a23e
000000b0: 3458 6abe 2d96 c5bd 9dc3 98be 17bc 0fbd
000000c0: 5a50 60be 6438 a63d eb1f 9d3e b114 04bd
000000d0: 809b eebd 6b5e a73e 318b 29be d152 9ebe
000000e0: 2be8 a13e b3a8 93be 2639 723d a2a0 4ebd
000000f0: 44ac 3bbe 6ac1 803e b469 48be 74ad 8ebe
00000100: 099b 5c3d 2a1a a4be 48ee 2a3e 4a35 153e
00000110: d404 a43d 3c95 54be 4f0f 98bd 8ca4 8a3e
00000120: 949c a3be 93e5 7cbe 5e5f 5abc 1275 a23d
00000130: 8788 ad3d 74dc 0a3e b30f e33d fa7a 9bbe
00000140: 6906 7b3e f873 ae3e a2c4 99be b4d4 0c3e
00000150: ee13 023e 4e39 a43e 8a8d 9f3d 2d93 b93e
00000160: a00c a53e 3a14 99be ff63 f9bd 7b9f a7be
00000170: 194c 68be 0f31 f5bd 4280 0a3d 5e97 08be
00000180: d93e 083e d96b 97be 695b 5bbd bf53 4c3e
00000190: 14c7 82be 5719 4f3e 47a2 fabd e4c0 8cbd
000001a0: f242 a1be 7d96 50bd d35e 963e 0f01 933e
000001b0: d2dc 483e 38ac 2e3e 32b6 86be 91b8 a13e
000001c0: 6707 793e a590 7abe 5263 873c 8684 5b3e
000001d0: 0280 983c 20ba 953d 1fbb 6bbe aff7 18be
000001e0: bee1 993d a45f c6bd 2ed2 9bbe d35c 223e
000001f0: b791 9ebe fa96 553e ab34 9c3e 5190 843e
00000200: feae 2e3e c5c8 acbd 0d80 e93b 9431 193e
00000210: bbc2 a63e 7218 b83d 9a1f 013d 19b3 963e
00000220: f5b3 8a3e 48ed 4f3e 48de 313d ff32 6a3c
00000230: 18c0 c93e 822f 8c3e 3d0e f83b bd60 7a3e

conv1.0.bias f4 [16]
-0.08886579 0.31476048 0.21602204 0.12012159 -0.06713933 0.30408564 -0.09289613 -0.036888335
0.12875181 -0.038312603 -0.038834132 -0.19287233 9.184948e-05 0.27160302 -0.30984783 0.029812172
00000000: 44ff b5bd 4928 a13e e234 5d3e 4f02 f63d
00000010: 5880 89bd 1db1 9b3e 5440 bebd 3918 17bd
00000020: 84d7 033e aded 1cbd 8a10 1fbd 5380 45be
00000030: 509f c038 8d0f 8b3e 60a4 9ebe a838 f43c

conv2.0.weight f4 [32, 16, 3, 3]
0.009649696 0.0048046843 0.014314731 0.06015663 -0.057328627 0.047096744 -0.058724158 0.071111046
-0.06779903 -0.0761219 0.020554788 -0.04485161 0.009070012 -0.061985333 -0.010699714 -0.04304587
0.061563727 -0.050537474 -0.062217873 0.023239695 0.05830609 0.012577351 -0.008401192 -0.07337007
-0.049041815 -0.062331006 0.0009581468 -0.02310821 -0.062491193 -0.05464041 0.060287014 0.08523437
-0.013938666 0.006027957 0.0033805694 -0.053431857 -0.005584417 -0.072211675 0.009900392 -0.074931875
-0.070972376 0.0085435 0.06467368 0.071197435 -0.019629294 0.08054849 -0.068605855 -0.009222569
-0.0011923901 0.032445896 0.04615456 0.060882896 0.084180795 0.0114517845 -0.04442256 -0.01157845
0.045727547 -0.08270285 -0.05050242 -0.08200892 -0.01406968 -0.072025485 0.049213678 0.011701294
-0.009068565 -0.029294236 0.054676577 0.013145159 0.043152995 0.04399818 -0.06403641 0.07593522
0.07247033 0.04137444 0.06382622 0.018799229 0.04778769 0.06650717 -0.043228727 0.029460644
-0.056349874 0.05042931 -0.00789986 -0.037602384 0.041764386 0.015380585 -0.078494094 0.08989116
-0.04436178 -0.012940351 0.064076126 -0.030257545 0.04876807 -0.05590065 -0.07437285 0.055242363
0.01310125 0.053150028 -0.06763375 -0.015319962 -0.0015356939 0.052573327 0.04621207 -0.0031683012
-0.049909238 -0.0059533855 0.03769524 0.013966324 -0.026431642 -0.010885182 0.01647804 -0.014582077
0.0067908033 0.0598704 0.07383196 -0.0013638405 0.036291678 -0.08027434 0.08416073 0.083000936
0.023676105 0.054525837 0.078360304 0.066374965 -0.049149748 0.067832 0.07492957 -0.0673347
-0.06193903 -0.07003724 0.023224352 -0.032857522 -0.0014456647 0.06077468 -0.06635134 0.04176546
0.017657068 -0.048382174 0.07988964 0.048632946 -0.0029769796 0.02817153 -0.053885706 -0.084436595
-0.061716348 0.049577873 -0.050921302 0.024260309 -0.002055066 -0.04304359 0.08256603 -0.029050114
-0.010416329 0.08272294 -0.016032599 0.046633646 -0.0093647 0.090917826 -0.049697835 -0.034577303
0.06275182 0.038405407 0.0772938 -0.0005252044 0.083024785 -0.020665767 0.068744205 0.058454867
-0.058638945 -0.00011099766 -0.00923164 0.05941321 0.007382996 -0.0577949 -0.07562836 0.0075183837
-0.023375485 -0.058511388 0.062309574 0.07338605 -0.06321346 -0.07889293 -0.028786538 -0.07575326
0.0015520552 -0.06273519 -0.035156887 0.08356486 0.073160276 -0.03281208 0.051840615 0.03590319
0.067251444 0.012330231 0.02334984 0.07561235 -0.0050465404 -0.020164086 -0.05527827 0.064901486
-0.06921544 0.017382568 0.047681965 -0.07882945 0.049548186 -0.059808627 -0.014337787 0.037477687
-0.0012856566 -0.03839786 -0.07991497 0.05675964 -0.033768624 -0.058389947 0.07919733 -0.07204426
-0.006985917 -0.053627037 -0.00064561336 0.0434834 -0.008726093 -0.02973578 0.037220415 -0.07692312
-0.0060533313 0.025341135 0.013867958 0.08702832 -0.0019664802 0.040246706 0.09678441 -0.0063886875
0.027187094 -0.027055439 0.037799314 0.05874099 0.05372779 0.04587809 -0.011957913 -0.07708864
-0.016205972 0.01817841 0.026825171 -0.08162734 -0.015933245 0.009602645 0.0073878104 0.07085619
-0.035686888 0.056608193 -0.059195906 0.012922553 -0.024316233 0.009376757 0.048419908 0.022105971
00000000: c219 1e3c 9d70 9d3b 5588 6a3c cc66 763d
00000010: 6cd1 6abd 84e8 403d be88 70bd aba2 913d
00000020: 38da 8abd cce5 9bbd 8462 a83c 52b6 37bd
00000030: 639a 143c 55e4 7dbd da4d 2fbc de50 30bd
00000040: 3f2a 7c3d 6200 4fbd 2bd8 7ebd 2c61 be3c
00000050: 5ed2 6e3d 3c11 4e3c 27a5 09bc 0c43 96bd
00000060: 12e0 48bd cc4e 7fbd 252c 7b3a 6e4d bdbc
00000070: c4f6 7fbd 9fce 5fbd 84ef 763d 5b8f ae3d
00000080: 015f 64bc 2b86 c53b 8b8c 5d3b 5ddb 5abd
00000090: 7cfd b6bb b7e3 93bd 4135 223c e275 99bd
000000a0: f759 91bd 09fa 0b3c a273 843d f6cf 913d
000000b0: 9dcd a0bc 9bf6 a43d 3a81 8cbd 421a 17bc
000000c0: f949 9cba fde5 043d 900c 3d3d 5860 793d
000000d0: fb66 ac3d 44a0 3b3c 6ef4 35bd 8ab3 3dbc
000000e0: cf4c 3b3d 1d60 a9bd a0db 4ebd 4bf4 a7bd
000000f0: 8484 66bc 1982 93bd 4894 493d c9b6 3f3c
00000100: 5294 14bc 77fa efbc 8cf4 5f3d cb5e 573c
00000110: 32c1 303d 7037 343d 8525 83bd ed83 9b3d
00000120: 536b 943d 3f78 293d 52b7 823d d700 9a3c
00000130: 06bd 433d e934 883d 9b10 31bd 7357 f13c
00000140: 20cf 66bd f78e 4e3d 6a6e 01bc f504 1abd
00000150: 2211 2b3d d9fe 7b3c 83c1 a0bd db18 b83d
00000160: b3b4 35bd c403 54bc 583a 833d acde f7bc
00000170: 07c1 473d 14f8 64bd cb50 98bd d145 623d
00000180: a0a6 563c d8b3 593d 9083 8abd 9400 7bbc
00000190: 5649 c9ba 2157 573d de48 3d3d 46a3 4fbb
000001a0: a16d 4cbd 9e14 c3bb 5366 1a3d 02d3 643c
000001b0: 2c87 d8bc c357 32bc f4fc 863c aae9 6ebc
000001c0: 6385 de3b aa3a 753d 3635 973d e5c2 b2ba
000001d0: 95a6 143d e066 a4bd 765c ac3d 65fc a93d
000001e0: 64f4 c13c 7c56 5f3d 5e7b a03d 99ef 873d
000001f0: 3f51 49bd 81eb 8a3d ad74 993d c6e6 89bd
00000200: c8b3 7dbd af6f 8fbd ff40 be3c 9c95 06bd
00000210: 757c bdba dfee 783d 36e3 87bd 4212 2b3d
00000220: 8ea5 903c 632c 46bd 2e9d a33d 5733 473d
00000230: 6e19 43bb fbc7 e63c 42b7 5cbd 18ed acbd
00000240: 48ca 7cbd 2b12 4b3d db92 50bd 8ebd c63c
00000250: 49ae 06bb 7a4e 30bd 6118 a93d 81fa edbc
00000260: 40a9 2abc a56a a93d cc56 83bc ec02 3f3d
00000270: 666e 19bc 2033 ba3d f58f 4bbd eea0 0dbd
00000280: 0784 803d fd4e 1d3d 364c 9e3d dfad 09ba
00000290: e608 aa3d 414b a9bc c3c9 8c3d 5f6e 6f3d
000002a0: 642f 70bd 6ac7 e8b8 4e40 17bc 445b 733d
000002b0: 0fed f13b 58ba 6cbd 0be3 9abd c65c f63b
000002c0: f27d bfbc a3a9 6fbd 5338 7f3d 6d4b 963d
000002d0: 0f76 81bd 9e92 a1bd bfd1 ebbc 8624 9bbd
000002e0: 556e cb3a 4f7b 80bd ab00 10bd 0e24 ab3d
000002f0: 0ed5 953d f665 06bd d356 543d 390f 133d
00000300: 20bb 893d bd04 4a3c 2a48 bf3c a6da 9a3d
00000310: 735d a5bb 272f a5bc 786b 62bd 12eb 843d
00000320: d3c0 8dbd e365 8e3c 2a4e 433d 5671 a1bd
00000330: 0af3 4a3d e4f9 74bd 0ae9 6abc 3482 193d
00000340: 7a83 a8ba 1347 1dbd 76aa a3bd cc7c 683d
00000350: f850 0abd 4c2a 6fbd 3632 a23d f18b 93bd
00000360: 1fea e4bb 06a8 5bbd 613e 29ba a61b 323d
00000370: e3f7 0ebc 7398 f3bc 6f74 183d de89 9dbd
00000380: 065b c6bb 3698 cf3c 6f36 633c e73b b23d
00000390: 10e0 00bb bbd9 243d e836 c63d 3258 d1bb
000003a0: 78b7 de3c 5ea3 ddbc 74d3 1a3d 649a 703d
000003b0: ac11 5c3d aaea 3b3d 1feb 43bc a6e0 9dbd
000003c0: 63c2 84bc e4ea 943c 76c0 db3c 3c2c a7bd
000003d0: 7086 82bc 6a54 1d3c 7215 f23b 0d1d 913d
000003e0: 6a2c 12bd fedd 673d 6877 72bd 1eb9 533c
000003f0: d632 c7bc f8a0 193c f453 463d 9517 b53c

conv2.0.bias f4 [32]
0.010223422 0.043350294 0.0030550428 -0.086072356 0.02287334 0.062094565 0.026691707 -0.04334527
0.054255985 -0.044620402 0.0101274885 -0.053900663 -0.06467623 0.04444413 -0.051080387 0.0011051451
0.027182842 -0.049260627 0.026214194 0.035016604 -0.010565197 -0.059941497 0.00065487216 -0.05650272
-0.06732846 -0.06646427 0.021292612 -0.03759426 -0.011256588 -0.023991408 0.06672899 -0.072101764
00000000: 2480 273c 1490 313d 1d37 483b b446 b0bd
00000010: df60 bb3c df56 7e3d 91a8 da3c cf8a 31bd
00000020: 863b 5e3d e2c3 36bd c4ed 253c f1c6 5cbd
00000030: f974 84bd 0c0b 363d ab39 51bd 84da 903a
00000040: 8dae de3c 83c5 49bd 26bf d63c 926d 0f3d
00000050: a619 2dbc 3785 75bd baab 2b3a 656f 67bd
00000060: 81e3 89bd 6b1e 88bd d86d ae3c 70fc 19bd
00000070: 8d6d 38bc a189 c4bc 35a9 883d 17aa 93bd

linear.weight f4 [10, 1568]
0.022235513 0.023050508 -0.018671636 0.006688313 -0.005010369 -0.01124815 0.00043567285 0.024065971
-0.014959447 0.0077640847 0.010940084 0.005633413 -0.021354636 -0.0016597852 0.0053319763 -0.017101994
0.005392027 -0.009437524 -0.032904226 -0.023965012 0.001408281 0.023955647 0.00908506 0.0024532182
0.03417527 0.007257445 -0.028454104 0.01919977 -0.024041876 0.01095607 0.03349866 -0.009208672
-0.020163115 0.012351209 -0.0015754227 0.004665261 0.0041652503 0.017107056 -0.00844764 -0.029365038
-0.01697927 -0.005554599 -0.019459557 -0.01139991 -0.0072460943 -0.0020237972 0.021670789 -0.007629184
-0.021998428 -0.017876504 -0.019104457 -0.010720346 -0.006676368 0.015115075 -0.01803701 -0.012727288
0.02017901 0.007675174 0.003279554 0.01220063 -0.00049258437 0.029980414 -0.00035960454 0.010212294
-0.004210789 0.0022983353 -0.0014899559 0.0062194173 0.032912094 0.018095218 0.008967054 0.046849646
0.02359838 -0.04021859 -0.030150713 0.014376641 0.004843462 0.019778175 0.048746377 0.030091893
-0.024054844 -0.027599465 0.029268546 0.023645572 -0.025721923 0.0045549953 -0.008052189 -0.022475228
-0.016495837 0.027834835 -0.009389117 0.01403418 -0.02425688 -0.018861357 0.0015648626 -0.0046427706
0.0012649847 0.011530537 -0.020602198 0.02319109 -0.010951327 0.012008311 -0.008041079 -0.0040242737
0.00010345079 0.015780644 0.005678856 0.014338285 0.019002529 -0.014908302 -0.0066989614 0.0037401896
-0.009660123 -0.005574847 0.020619959 0.00070775143 -0.016474348 -0.0053622657 0.02512946 -0.021854647
-0.0004376109 -0.024179688 0.021108277 -0.006813758 0.012661012 -0.019678738 -0.01258003 0.023415532
-0.00758404 -0.0036291492 -0.02489611 0.0047460347 -0.021081783 -0.021610485 -0.018432155 0.009007411
0.010305939 0.019802622 -0.013583519 -0.006185431 0.014614174 0.012092069 -0.009036454 0.005696869
-0.022106411 -0.004332999 0.02239377 0.017506283 -0.015088606 -0.022458248 0.013565461 0.021134662
0.023376437 -0.01518571 0.022274176 0.008625068 0.026290908 0.0046146447 -0.019524343 -0.0017250971
0.0014385374 0.011962453 0.00818781 0.012184372 -0.0013544981 -0.012513005 0.005852982 0.015415892
0.027527966 0.032841526 -0.021451473 -0.030633276 -0.0011489184 0.014921453 -0.0037693155 0.027128078
0.03933558 -0.009898951 -0.0063403216 -0.0020152882 -0.01182872 0.02751885 0.015612626 0.017640071
0.009694673 0.010854109 0.026526026 -0.00996268 0.022792086 0.0074589257 -0.015643494 -0.00909469
-0.0017854625 -0.024662236 0.00017863995 -0.012998847 0.004696341 0.0092229 -0.020624349 -0.016971968
0.006800144 -0.0014254744 0.008056597 -0.003766714 -0.019833522 -0.020949759 0.0151747735 0.0039343783
-0.01510589 0.01801988 0.0068393988 -0.019274298 0.0056916396 0.01823156 0.00027452552 0.014246342
0.021504885 -0.0074906168 0.009294894 0.018596753 0.0020220305 -0.020322736 0.014247964 0.024821691
-0.006887694 0.027042694 0.020218143 -0.009263045 -0.023340942 0.002955088 0.019865986 0.018497506
-0.013236326 -0.0003412971 0.019659597 0.03257567 0.00929726 -0.024376333 -0.013546499 -0.023334369
0.0070168516 0.018780816 0.011541056 0.023584869 -0.0077401698 0.021494227 0.0014137772 -0.00930629
-0.0016830359 0.010392836 -0.00068007555 -0.025385795 -0.02306016 0.01610994 0.0012428387 0.013423084
00000000: 4027 b63c 6bd4 bc3c 42f5 98bc a329 db3b
00000010: 052e a4bb 294a 38bc 056b e439 0026 c53c
00000020: 7818 75bc dd69 fe3b 0a3e 333c 7e98 b83b
00000030: ebef aebc 268d d9ba dcb7 ae3b 7b19 8cbc
00000040: 9aaf b03b d89f 1abc 95c6 06bd 4652 c4bc
00000050: 1296 b83a a23e c43c 81d9 143c 2cc6 203b
00000060: 5efb 0b3d dccf ed3b 9518 e9bc d648 9d3c
00000070: 78f3 c4bc 1781 333c e435 093d f8df 16bc
00000080: 1e2d a5bc ba5c 4a3c 6a7e ceba 0cdf 983b
00000090: a77c 883b 1924 8c3c f867 0abc f38e f0bc
000000a0: 1c18 8bbc 5b03 b6bb a669 9fbc b0c6 3abc
000000b0: a570 edbb afa1 04bb f086 b13c 3cfe f9bb
000000c0: 0c36 b4bc bf71 92bc f380 9cbc 64a4 2fbc
000000d0: 6fc5 dabb 38a5 773c 5ac2 93bc 1d86 50bc
000000e0: 744e a53c 0780 fb3b c9ed 563b 27e5 473c
000000f0: c720 01ba 7c99 f53c 4e89 bcb9 7751 273c
00000100: a9fa 89bb ab9f 163b a04a c3ba 41cc cb3b
00000110: d5ce 063d 6c3c 943c 8dea 123c 6ae5 3f3d
00000120: 6451 c13c 40bc 24bd a1fe f6bc 018c 6b3c
00000130: e7b5 9e3b d705 a23c 48aa 473d 4683 f63c
00000140: aa0e c5bc 4618 e2bc 97c4 ef3c 5cb4 c13c
00000150: c8b6 d2bc 1242 953b 54ed 03bc f81d b8bc
00000160: 4722 87bc e105 e43c d0d4 19bc 9eef 653c
00000170: 5db6 c6bc 2283 9abc 131c cd3a 6222 98bb
00000180: d8cd a53a 94ea 3c3c f1c5 a8bc 3efb bd3c
00000190: 326d 33bc 82be 443c bbbe 03bc 0ede 83bb
000001a0: b8f3 d838 6946 813c b215 ba3b 20eb 6a3c
000001b0: 31ab 9b3c f341 74bc f682 dbbb f81d 753b
000001c0: 7e45 1ebc 35ad b6bb 30eb a83c 6588 393a
000001d0: 36f5 86bc f2b5 afbb 4cdc cd3c 8408 b3bc
000001e0: 246f e5b9 7b14 c6bc 44eb ac3c f245 dfbb
000001f0: 2270 4f3c 4e35 a1bc 781c 4ebc eed1 bf3c
00000200: 8a83 f8bb 05d7 6dbb edf2 cbbc a084 9b3b
00000210: b4b3 acbc 7908 b1bc 08ff 96bc d293 133c
00000220: 3eda 283c 1c39 a23c 688d 5ebc 28af cabb
00000230: 4a70 6f3c d01d 463c a30d 14bc cdac ba3b
00000240: 8118 b5bc d4fb 8dbb 2473 b73c 5669 8f3c
00000250: 3336 77bc 5cfa b7bc ab41 5e3c 9922 ad3c
00000260: f17f bf3c 7ccd 78bc 5578 b63c 2850 0d3c
00000270: 0860 d73c 7236 973b 84f1 9fbc a71c e2ba
00000280: 4e8d bc3a 2afe 433c 2a26 063c f6a0 473c
00000290: 6a89 b1ba 5903 4dbc 5fca bf3b f092 7c3c
000002a0: 5482 e13c d684 063d 00bb afbc a3f2 fabc
000002b0: 4e97 96ba 1c79 743c 9f06 77bb b43b de3c
000002c0: 581e 213d 362f 22bc 79c2 cfbb ed12 04bb
000002d0: 3fcd 41bc 366f e13c 1acc 7f3c e981 903c
000002e0: 68d6 1e3c 6fd5 313c 1c4d d93c 823a 23bc
000002f0: 78b6 ba3c 016a f43b c926 80bc e501 15bc
00000300: 2e06 eaba 7508 cabc 4c51 3b39 1ef9 54bc
00000310: c4e3 993b a51b 173c 65f4 a8bc cc08 8bbc
00000320: bed3 de3b fcd6 baba d1ff 033c f9da 76bb
00000330: e979 a2bc d49e abbc 9d9f 783c f5eb 803b
00000340: b27e 77bc 6d9e 933c 091d e03b 22e5 9dbc
00000350: ef80 ba3b 5a5a 953c 31ee 8f39 7d69 693c
00000360: 032b b03c d973 f5bb 9c49 183c 3858 983c
00000370: 0b84 043b de7b a6bc 4b70 693c dc56 cb3c
00000380: 2ab2 e1bb a488 dd3c 85a0 a53c 07c4 17bc
00000390: 8135 bfbc 26aa 413b febd a23c 1588 973c
000003a0: 2ddd 58bc 1ff0 b2b9 2a0d a13c 116e 053d
000003b0: 8953 183c e0b0 c7bc 23f2 5dbc b827 bfbc
000003c0: 9eed e53b 3ada 993c b316 3d3c 0e35 c13c
000003d0: 40a1 fdbb a914 b03c 7e4e b93a 6979 18bc
000003e0: 5099 dcba b746 2a3c 1947 32ba dff5 cfbc
000003f0: a9e8 bcbc fef8 833c bfe6 a23a 7fec 5b3c

linear.bias f4 [10]
-0.0057914252 0.014500599 -0.01275022 0.013863326 0.025446557 0.01683065 -0.02264969 -0.014125105
-0.0026324324 0.01318922
00000000: ffc5 bdbb ec93 6d3c 4ce6 50bc 0123 633c
00000010: 4c75 d03c 6ee0 893c d88b b9bc fc6c 67bc
00000020: e384 2cbb 9917 583c
